hand_sign_model.pth (torch, 69784 bytes, 6 tensors)

fc.0.weight f4 [128, 63]
-0.045325767 -0.1376569 0.037958566 0.035421275 -0.008621995 0.05961344 -0.07347588 -0.10465255
0.097064845 0.051156353 -0.039187044 0.115953855 0.023957256 0.017435439 0.047427498 -0.000158031
-0.013308305 -0.054152038 0.012948454 -0.048012868 -0.12687972 -0.05557786 0.05818665 0.088010415
-0.12379683 -0.07020814 0.087012395 -0.024357254 -0.1460664 -0.041388292 -0.11219202 0.025872067
0.017459854 -0.047926407 0.07754933 -0.053538848 0.04133114 -0.060524024 0.05878642 -0.06905374
-0.06837957 -0.15546858 0.083755195 -0.015881432 -0.12142988 0.008746908 0.029168634 0.039575946
0.0311333 0.12822989 0.122443706 -0.08679786 0.023340343 0.06493854 -0.14481205 -0.053594906
0.031014372 -0.12951824 -0.040005848 -0.06607531 0.05511149 -0.11569613 0.027406398 0.03414312
-0.048975468 -0.07324608 -0.11299243 0.013805408 0.4448438 0.08892766 -0.108912654 0.199036
-0.042743817 0.0069889342 0.2279681 -0.008409611 -0.03868328 0.2674475 -0.11241958 -0.027322356
-0.17956527 -0.0170216 0.057902183 -0.026698321 -0.08010485 -0.052400112 0.13362253 -0.10620482
-0.08831116 -0.01111008 -0.026853742 0.029904846 -0.2393451 -0.014695404 0.07570879 0.019097472
-0.074484825 -0.004322627 0.14536642 -0.13271871 0.085776925 0.115925916 0.1061707 0.039472274
-0.21368407 0.028570233 0.0982629 0.06639302 0.06372217 0.009809137 0.14102624 0.075629584
0.06397311 0.22819681 -0.023655763 0.1621457 0.017075611 0.07944621 0.123484716 0.04214556
0.13148522 0.11686223 0.1290582 0.084997095 0.10582637 0.2962517 0.16191712 -0.025613835
0.090981096 0.17194015 0.18432859 0.023803355 0.15824382 0.17080465 0.05833433 0.11634452
0.2057002 0.05995061 0.004498774 0.104997076 0.19703764 0.1293884 0.123900205 0.32385457
-0.028021004 0.07532495 0.063143104 -0.07264507 -0.07901027 0.14029987 0.05123011 -0.04001443
0.058287345 -0.08125122 -0.068155885 0.10162914 0.043222446 0.07756547 0.093366325 0.0032015736
-0.00682433 0.012627488 0.054188717 -0.06251896 -0.09609261 -0.06725421 0.106250204 0.17131327
-0.040149026 0.041428763 -0.077531375 0.037171803 -0.1635546 -0.213266 0.091272905 -0.17540903
-0.13253948 0.12457162 -0.0045955377 -0.10020353 0.015259976 -0.08004381 -0.12974131 -0.0068841917
-0.06154431 -0.28935432 0.020949803 -0.11642618 -0.16959104 -0.14664298 -0.07035317 -0.2006003
-0.16152261 -0.057514865 -0.2679442 -0.0051443633 -0.15976445 -0.2855651 0.02455867 -0.029929396
-0.25376233 0.08676644 -0.106299244 -0.061928075 -0.015682528 -0.120903395 -0.3798881 0.026586352
0.08419535 -0.26334175 0.15395215 0.09930118 -0.041785676 0.1530375 0.108817324 -0.17236392
0.10508303 -0.1234065 -0.35002878 0.017210627 0.12100617 -0.16678356 0.04694004 0.05531743
-0.112902425 0.011296507 -0.012824382 -0.08223986 -0.109822765 0.07669059 -0.09514971 -0.05414956
0.1615938 0.14500378 -0.087347984 0.09248441 0.12658297 0.12638764 -0.08411474 0.16265935
-0.09246177 -0.024184868 0.15861894 0.014569574 0.11696507 0.19974358 -0.077872284 0.024104528
0.08510112 -0.07117782 -0.03611726 0.07061173 0.056338966 0.118490696 -0.019303642 -0.04298394
00000000: 83a7 39bd eef5 0cbe 717a 1b3d e615 113d
00000010: 4543 0dbc 392d 743d 867a 96bd 1354 d6bd
00000020: efc9 c63d 5389 513d 9882 20bd 3779 ed3d
00000030: 0242 c43c c4d4 8e3c 5643 423d 20b5 25b9
00000040: 140b 5abc 87ce 5dbd c125 543c 24a9 44bd
00000050: c2ec 01be 9ca5 63bd 2055 6e3d ce3e b43d
00000060: 3189 fdbd 49c9 8fbd 8e33 b23d dd88 c7bc
00000070: 6e92 15be c586 29bd eec4 e5bd a8f1 d33c
00000080: f807 8f3c 7b4e 44bd 2fd2 9e3d 8d4b 5bbd
00000090: d74a 293d 0ae8 77bd 07ca 703d 0c6c 8dbd
000000a0: 970a 8cbd 2833 1fbe d887 ab3d c719 82bc
000000b0: 3bb0 f8bd 314f 0f3c 0ff3 ee3c 631a 223d
000000c0: 430b ff3c b24e 033e c4c3 fa3d 14c3 b1bd
000000d0: 3f34 bf3c 7ffe 843d 9c49 14be 5586 5bbd
000000e0: da11 fe3c 6ea0 04be 2cdd 23bd 7e52 87bd
000000f0: 96bc 613d 18f2 ecbd 6283 e03c a8d9 0b3d
00000100: 809a 48bd 0a02 96bd 9368 e7bd 1430 623c
00000110: 91c2 e33e b41f b63d 990d dfbd 18d0 4b3e
00000120: 2414 2fbd 6e03 e53b 7870 693e 77c8 09bc
00000130: 5c72 1ebd e1ee 883e 3d3c e6bd 22d3 dfbc
00000140: f5df 37be e270 8bbc d72a 6d3d 70b6 dabc
00000150: 030e a4bd 80a1 56bd 58d4 083e ea81 d9bd
00000160: 7bdc b4bd 0e07 36bc 61fc dbbc 02fb f43c
00000170: e216 75be fec4 70bc 360d 9b3d 4d72 9c3c
00000180: 808b 98bd d3a4 8dbb efda 143e 6ae7 07be
00000190: d0ab af3d 916a ed3d 0670 d93d aead 213d
000001a0: ffcf 5abe 1f0c ea3c 0f3e c93d 10f9 873d
000001b0: c580 823d 81b6 203c 2f69 103e afe3 9a3d
000001c0: 5504 833d 6dac 693e bbc9 c1bc 8609 263e
000001d0: 27e2 8b3c b2b4 a23d 8ee5 fc3d d3a0 2c3d
000001e0: 10a4 063e 7755 ef3d d527 043e f512 ae3d
000001f0: 7fbb d83d 4eae 973e 9acd 253e 1bd4 d1bc
00000200: 4c54 ba3d 1411 303e a2c0 3c3e 41ff c23c
00000210: ab0a 223e 6ae7 2e3e faef 6e3d 0946 ee3d
00000220: 13a3 523e c58e 753d 746a 933b b508 d73d
00000230: 3cc4 493e 657e 043e 64bf fd3d 44d0 a53e
00000240: 4e8c e5bc f843 9a3d 2c51 813d f0c6 94bd
00000250: 23d0 a1bd c5aa 0f3e aad6 513d 2ce6 23bd
00000260: b6be 6e3d 0a67 a6bd 5095 8bbd f022 d03d
00000270: 050a 313d a5da 9e3d d836 bf3d 7ed1 513b
00000280: a19e dfbb 86e3 4e3c fdf4 5d3d f109 80bd
00000290: 34cc c4bd 93bc 89bd b599 d93d bf6c 2f3e
000002a0: 4e73 24bd 35b1 293d c5c8 9ebd 7641 183d
000002b0: db7a 27be 6762 5abe 4aed ba3d 6d9e 33be
000002c0: 6eb8 07be 681f ff3d 2a96 96bb 8237 cdbd
000002d0: fa04 7a3c 02ee a3bd e8da 04be c994 e1bb
000002e0: e315 7cbd 4026 94be ec9e ab3c d970 eebd
000002f0: 46a9 2dbe 9429 16be 5315 90bd 2a6a 4dbe
00000300: 2f66 25be b594 6bbd fb2f 89be 0c92 a8bb
00000310: 4b99 23be 9735 92be 442f c93c 7e2e f5bc
00000320: 23ed 81be 9ab2 b13d 6bb3 d9bd 4ba8 7dbd
00000330: a578 80bc 339c f7bd b180 c2be 9fcb d93c
00000340: 9d6e ac3d bbd4 86be a2a5 1d3e 6b5e cb3d
00000350: 7527 2bbd ddb5 1c3e 9edb de3d 2b80 30be
00000360: c635 d73d 8cbc fcbd f936 b3be 4dfd 8c3c
00000370: 15d2 f73d 4fc9 2abe 3344 403d 8894 623d
00000380: 6339 e7bd fc14 393c 5b1d 52bc 5f6d a8bd
00000390: c2ea e0bd f50f 9d3d dadd c2bd eecb 5dbd
000003a0: d878 253e df7b 143e 80e3 b2bd 7768 bd3d
000003b0: f79e 013e c36b 013e 5944 acbd 2c90 263e
000003c0: 995c bdbd 581f c6bc 016d 223e 39b5 6e3c
000003d0: 628b ef3d 9589 4c3e 817b 9fbd dc76 c53c
000003e0: 7f49 ae3d adc5 91bd b1ef 13bd e29c 903d
000003f0: b0c3 663d 40ab f23d ac22 9ebc ee0f 30bd

fc.0.bias f4 [128]
0.2517042 0.036433395 -0.018008875 0.22139362 -0.050612718 -0.014817757 0.24389707 0.1652346
0.059984416 0.04171418 -0.020383483 -0.08712731 0.034011837 -0.06993092 0.0002730044 -0.115057625
-0.113831766 0.18273926 0.09591812 0.07970314 -0.008159852 -0.05794532 -0.09255788 0.19747312
-0.006891439 0.05797911 0.023723701 -0.11928577 -0.054776683 -0.0032570437 -0.0037712532 -0.0019893814
0.14835358 0.033599723 -0.08466008 -0.10210268 0.29550058 -0.085028075 -0.05515022 0.22437268
0.060711715 -0.11007767 -0.029689267 0.043334235 0.05841879 0.06830174 -0.044646543 -0.079423375
-0.09599378 0.13178834 -0.0826013 0.1917841 -0.12546462 -0.024499472 -0.034802455 -0.06999579
0.08731077 -0.15299305 0.10012576 -0.056065846 -0.01831311 -0.122152254 -0.0001847744 -0.047870465
0.03866001 0.054840855 -0.113077186 0.17693713 -0.059149552 -0.05463797 0.15838368 -0.05985963
-0.13754308 0.27129382 -0.042032577 0.21086435 -0.11894978 -0.10629618 0.13478684 0.2519049
-0.0092585925 0.1387303 -0.073039465 0.11198561 0.07342461 -0.024236238 -0.017494883 0.15659587
-0.06464498 0.27469817 -0.048040457 -0.07812114 -0.1849245 0.0003607929 0.10612624 0.004990893
0.19418651 -0.029075988 -0.066317245 0.077946074 -0.065396965 0.2547278 -0.026280005 0.22039029
0.051539447 -0.038187996 0.15770195 -0.060452417 -0.088422574 -0.15691073 -0.065835305 -0.024589278
-0.12445903 0.0053179767 0.08366654 -0.08325194 -0.08300813 -0.058101535 0.12590575 -0.08724288
0.2608105 -0.013022162 -0.15701108 -0.048171706 0.122611865 -0.05260284 0.104489945 -0.0446869
00000000: 5fdf 803e 2f3b 153d 5987 93bc 02b5 623e
00000010: 484f 4fbd 2dc6 72bc 27c0 793e 4233 293e
00000020: 38b2 753d 7ddc 2a3d 43fb a6bc ce6f b2bd
00000030: ff4f 0b3d f137 8fbd 0822 8f39 55a3 ebbd
00000040: a120 e9bd 0020 3b3e b870 c43d 663b a33d
00000050: e6b0 05bc 1258 6dbd fc8e bdbd 6536 4a3e
00000060: 95d1 e1bb 817b 6d3d 3558 c23c 194c f4bd
00000070: 845d 60bd 2074 55bb 2127 77bb 4860 02bb
00000080: 00ea 173e dd9f 093d 4462 adbd 361b d1bd
00000090: da4b 973e 3323 aebd 32e5 61bd f4c1 653e
000000a0: d9ac 783d 6770 e1bd e836 f3bc 3d7f 313d
000000b0: 8b48 6f3d c8e1 8b3d 4bdf 36bd b9a8 a2bd
000000c0: 6398 c4bd 86f3 063e df2a a9bd 0d63 443e
000000d0: cc79 00be 1eb3 c8bc 058d 0ebd f459 8fbd
000000e0: fdcf b23d 36aa 1cbe bc0e cd3d 4da5 65bd
000000f0: 6005 96bc f62a fabd 00c0 41b9 d213 44bd
00000100: f559 1e3d cea0 603d 0395 e7bd 022f 353e
00000110: cd46 72bd 10cc 5fbd 552f 223e 5f2f 75bd
00000120: 18d8 0cbe 06e7 8a3e 5a2a 2cbd d3ec 573e
00000130: f19b f3bd d0b1 d9bd 9005 0a3e aef9 803e
00000140: 5ab1 17bc 510f 0e3e b795 95bd b658 e53d
00000150: a45f 963d 138b c6bc 6e51 8fbc ab5a 203e
00000160: 9664 84bd 3da5 8c3e 12c6 44bd fafd 9fbd
00000170: d95c 3dbe ce28 bd39 b758 d93d a58a a33b
00000180: d4d8 463e c430 eebc 56d1 87bd 31a2 9f3d
00000190: d8ee 85bd af6b 823e 2a49 d7bc fead 613e
000001a0: 071b 533d 046b 1cbd 9f7c 213e f49c 77bd
000001b0: e516 b5bd 35ad 20be a9d4 86bd 746f c9bc
000001c0: 60e4 febd 6c42 ae3b 5d59 ab3d fe7f aabd
000001d0: 2b00 aabd e0fb 6dbd 70ed 003e 65ac b2bd
000001e0: f488 853e e85a 55bc 83c7 20be b24f 45bd
000001f0: ee1b fb3d 1376 57bd d3fe d53d 9c09 37bd

fc.2.weight f4 [64, 128]
-0.112762436 0.02000064 -0.034156326 0.18812226 0.03813622 -0.111724116 0.09595222 0.0059040776
0.09257018 0.14360769 0.15435848 -0.027400848 0.105447486 -0.07261858 0.13363731 0.060236648
-0.025974628 -0.110126615 -0.10303565 0.26019135 -0.20999834 -0.054346938 -0.04295282 0.18408966
-0.040436007 -0.14067526 0.15073575 0.051704552 0.064768665 0.057207957 0.0063659647 0.0066145184
-0.03654311 0.10515395 0.010124346 0.036005996 -0.12313695 -0.04620246 -0.08645996 -0.11467335
0.024336066 0.08772089 0.025514573 -0.06937124 -0.044496875 -0.058481906 -0.012027847 0.016716883
-0.005168797 -0.12626006 -0.11177776 0.17634466 0.12950867 0.09764723 -0.06592394 -0.036061063
0.12626182 -0.04468522 0.058497045 0.016808486 -0.072106026 0.05888924 -0.072641596 -0.07145819
0.08110926 0.11065604 0.0062090233 0.1428001 -0.050327387 0.031093605 0.13695353 -0.056835935
-0.0072409795 -0.101727195 0.026521621 0.24963738 0.07805856 -0.08291062 -0.14761652 -0.08298808
0.0339502 -0.030174114 -0.05905558 -0.02054294 -0.063013315 -0.07573173 0.010884864 -0.0990336
-0.026147336 -0.1718346 -0.046503853 0.07455144 -0.053472236 0.13747802 -0.08744988 -0.028135821
-0.08893981 0.01955096 0.06516681 0.20467065 -0.04336741 -0.21569324 0.06829443 -0.21051866
-0.18104166 -0.056483738 0.032999262 -0.035103247 0.06557694 0.062572174 -0.015961908 0.08474674
0.014530629 0.055154666 0.041437533 0.01753412 -0.17241146 0.04431697 0.06999986 0.07288654
-0.22410028 0.07136562 -0.22128117 -0.093459584 -0.042783033 0.006028848 0.14075892 0.07724605
0.26006433 -0.039062474 -0.026387675 0.09991764 -0.026892524 0.07484488 0.08305158 0.23758833
-0.11948632 -0.012422107 -0.17163886 0.0129523575 0.048309468 -0.07340332 -0.090199344 -0.07245375
0.012516201 0.19717306 0.06806234 0.037159774 -0.034053452 0.046501108 -0.08597112 0.16955514
0.17735757 0.01320944 -0.17835866 -0.061287597 -0.06393808 0.08932806 0.0015885186 -0.029464465
0.13911413 -0.045297053 0.00858319 -0.0052605197 0.15731373 0.0044062734 0.05580132 0.28517687
0.26227 -0.062063277 -0.07732427 -0.022293434 0.028417626 0.029431578 -0.048100743 -0.03999308
-0.051399592 0.1591297 -0.07037456 0.08234159 0.00751601 -0.009898225 -0.016588181 -0.02627528
-0.100790285 -0.022176625 0.015936857 0.06969596 0.005271435 0.010958926 0.052808277 0.07658403
-0.0061861486 -0.0092292065 0.04108002 -0.0014209584 0.042856008 0.045040466 0.014451337 -0.08175304
-0.097481616 0.26348725 -0.110460795 0.17629905 0.036287278 0.07991152 0.19433007 0.17939588
0.040016957 0.07132376 0.023516446 0.060212865 0.033877153 -0.044136394 -0.08311649 0.16587996
0.028014548 0.2071033 -0.08638845 -0.023103587 -0.0073035653 0.015001953 -0.040144287 -0.0883636
0.13801467 0.014507977 -0.0762903 0.04958282 0.08597594 0.20714658 -0.10378107 0.26664352
0.05435739 -0.093031175 0.057827763 0.07401558 0.060420558 -0.08540487 0.08636772 -0.061725967
-0.018316716 -0.13628884 -0.024636362 -0.12514333 0.011010745 0.044790797 0.057044074 0.11726236
0.14753178 -0.009759118 -0.064239375 -0.092088625 -0.123054564 -0.06916143 0.2056356 -0.029095761
00000000: feef e6bd 62d8 a33c 81e7 0bbd 1fa3 403e
00000010: ba34 1c3d 9dcf e4bd 9982 c43d fe76 c13b
00000020: 6f95 bd3d e50d 133e 2610 1e3e be77 e0bc
00000030: daf4 d73d 0db9 94bd 38d8 083e b4ba 763d
00000040: bec8 d4bc 108a e1bd 5b04 d3bd cd37 853e
00000050: ce09 57be e59a 5ebd 4cef 2fbd 0082 3c3e
00000060: 3aa0 25bd 2d0d 10be 795a 1a3e 27c8 533d
00000070: 6fa5 843d e452 6a3d 9599 d03b 9abe d83b
00000080: 3aae 15bd f45a d73d 96e0 253c 067b 133d
00000090: 3a2f fcbd ca3e 3dbd eb11 b1bd dcd9 eabd
000000a0: 6e5c c73c 03a7 b33d f003 d13c 8212 8ebd
000000b0: 5b42 36bd b98a 6fbd 7210 45bc d8f1 883c
000000c0: 035f a9bb 514a 01be bdeb e4bd b293 343e
000000d0: ec9d 043e 45fb c73d 2103 87bd c4b4 13bd
000000e0: c74a 013e d907 37bd 999a 6f3d f3b1 893c
000000f0: 53ac 93bd d835 713d 1ec5 94bd ac58 92bd
00000100: 9d1c a63d a29f e23d 1075 cb3b 303a 123e
00000110: 1724 4ebd 04b8 fe3c 8c3d 0c3e cccc 68bd
00000120: bd45 edbb 5956 d0bd df43 d93c f1a0 7f3e
00000130: 2bdd 9f3d 0bcd a9bd c928 17be a8f5 a9bd
00000140: 5d0f 0b3d b42f f7bc 44e4 71bd ab49 a8bc
00000150: 200d 81bd 3d19 9bbd 6e56 323c 21d2 cabd
00000160: f032 d6bc 69f5 2fbe d37a 3ebd 6dae 983d
00000170: b405 5bbd 0ac7 0c3e ec18 b3bd 187d e6bc
00000180: 1326 b6bd 5629 a03c 2d76 853d 2f95 513e
00000190: 06a2 31bd b0de 5cbe f3dd 8b3d 3492 57be
000001a0: fc62 39be 7e5b 67bd 3c2a 073d 6cc8 0fbd
000001b0: 344d 863d d725 803d 8cc2 82bc b38f ad3d
000001c0: e011 6e3c dce9 613d 67ba 293d b7a3 8f3c
000001d0: a18c 30be b685 353d 165c 8f3d 8a45 953d
000001e0: 8b7a 65be 2328 923d 8897 62be bd67 bfbd
000001f0: 433d 2fbd a48d c53b 1b23 103e 2d33 9e3d
00000200: 2727 853e f9ff 1fbd f72a d8bc 9fa1 cc3d
00000210: b64d dcbc 4648 993d f216 aa3d 5b4a 733e
00000220: 3eb5 f4bd 1886 4bbc 19c2 2fbe 2036 543c
00000230: 26e0 453d 7b54 96bd 6fba b8bd a262 94bd
00000240: c010 4d3c bce7 493e 4564 8b3d d934 183d
00000250: a27b 0bbd f277 3e3d a011 b0bd dd9f 2d3e
00000260: 399d 353e 686c 583c a7a3 36be b408 7bbd
00000270: f8f1 82bd a1f1 b63d d735 d03a 765f f1bc
00000280: ef73 0e3e 6789 39bd 82a0 0c3c 7060 acbb
00000290: da16 213e 8062 903b ed8f 643d b402 923e
000002a0: 4148 863e 1036 7ebd 305c 9ebd b8a0 b6bc
000002b0: 15cc e83c 7e1a f13c 4905 45bd c9cf 23bd
000002c0: 6188 52bd e5f2 223e 8a20 90bd b5a2 a83d
000002d0: dd48 f63b 2a2c 22bc f0e3 87bc 423f d7bc
000002e0: 236b cebd c1ab b5bc 038e 823c c1bc 8e3d
000002f0: 00bc ac3b 118d 333c 7e4d 583d 17d8 9c3d
00000300: 2db5 cabb 1936 17bc 8643 283d 743f baba
00000310: c889 2f3d 5a7c 383d 4dc5 6c3c 236e a7bd
00000320: 71a4 c7bd cde7 863e 4539 e2bd bd87 343e
00000330: f8a1 143d a7a8 a33d 76fe 463e 8eb3 373e
00000340: d2e8 233d 3112 923d 90a5 c03c c4a1 763d
00000350: c5c2 0a3d 5dc8 34bd fa38 aabd 70dc 293e
00000360: c47e e53c e312 543e 6dec b0bd bc43 bdbc
00000370: bf52 efbb c0ca 753c 566e 24bd faf7 b4bd
00000380: b853 0d3e deb2 6d3c 173e 9cbd 5b17 4b3d
00000390: 2714 b03d 3c1e 543e 2b8b d4bd 8085 883e
000003a0: dba5 5e3d 2187 bebd cedc 6c3d 7b95 973d
000003b0: 8c7b 773d c0e8 aebd 8fe1 b03d 5ed4 7cbd
000003c0: f00c 96bc 4d8f 0bbe 32d2 c9bc 9325 00be
000003d0: 6966 343c 8e76 373d 0ca7 693d 4027 f03d
000003e0: 9212 173e b5e4 1fbc ef8f 83bd f698 bcbd
000003f0: 0804 fcbd 82a4 8dbd 2492 523e 3c5a eebc

fc.2.bias f4 [64]
0.1348877 0.10958357 -0.05873143 0.096816085 0.064283654 -0.064324945 -0.078735545 -0.0026062904
0.08679539 0.038939938 0.036753435 -0.034809873 -0.04753953 0.026158514 -0.06864321 -0.08748424
0.084811054 0.08844908 0.08190208 -0.04020626 -0.092579395 -0.027887238 0.113869764 -0.0054855756
0.05155798 -0.08395185 0.09968875 0.079231046 0.14090265 0.13815486 -0.07392222 0.019757478
-0.036238607 -0.033231758 0.02377733 -0.0051770085 -0.004872034 -0.040915526 0.059803046 -0.03477511
0.05669764 -0.050496433 -0.08660655 0.051071502 -0.06088523 0.047043193 0.032095663 0.055965092
-0.06720489 0.09232467 -0.034046803 0.05229668 0.121138655 -0.095061734 -0.02373404 -0.07211919
0.06669033 0.03890334 0.15321092 0.08523971 -0.08324129 0.0018916538 -0.024966188 0.11823354
00000000: 0020 0a3e 5a6d e03d 5e90 70bd 8347 c63d
00000010: 26a7 833d ccbc 83bd 1a40 a1bd 4cce 2abb
00000020: c8c1 b13d 7c7f 1f3d c58a 163d cc94 0ebd
00000030: cfb8 42bd 614a d63c d094 8cbd f02a b3bd
00000040: 6bb1 ad3d cb24 b53d 47bc a73d 52af 24bd
00000050: 449a bdbd c773 e4bc 8d34 e93d 58c0 b3bb
00000060: 762e 533d f3ee abbd 9e29 cc3d e343 a23d
00000070: c948 103e 7878 0d3e 8864 97bd 6fda a13c
00000080: ef6e 14bd 061e 08bd adc8 c23c e5a3 a9bb
00000090: 95a5 9fbb 0a97 27bd 0af4 743d 5970 0ebd
000000a0: c93b 683d 59d5 4ebd c65e b1bd 5a30 513d
000000b0: ca62 79bd 5db0 403d be76 033d a73b 653d
000000c0: b8a2 89bd b714 bd3d a974 0bbd 0b35 563d
000000d0: 8b17 f83d baaf c2bd e46d c2bc 3ab3 93bd
000000e0: f194 883d 1c59 1f3d 53e3 1c3e 2892 ae3d
000000f0: 697a aabd 5ef1 f73a e485 ccbc 6d24 f23d

fc.4.weight f4 [5, 64]
0.12476667 -0.36677617 -0.07374378 0.08233777 -0.24798523 -0.12056428 0.08676327 -0.053338423
-0.3717742 0.081550956 -0.07911617 0.23273043 -0.35270643 -0.3390029 -0.11877069 0.11094275
-0.30164975 0.15849689 -0.14454548 0.06070453 0.11673948 0.12550728 -0.1263719 -0.0015056299
0.18186656 0.09043223 -0.21516722 -0.20899762 -0.31738415 0.13365455 -0.00064720324 -0.14799637
0.017896805 0.2578264 -0.22773187 0.012372972 -0.29338148 0.24831975 -0.20020321 0.09915784
0.03532596 -0.120487034 0.0722902 -0.21830468 0.20492981 0.10550668 -0.10673029 -0.015588585
0.044809863 -0.36839902 0.029421851 0.14274305 0.029400865 0.011451664 -0.02367422 -0.04544565
0.25910074 0.06340488 -0.17712304 -0.34438157 -0.031010047 -0.26265815 0.09530178 -0.27541086
-0.08118403 -0.27165073 0.08937202 -0.031073201 -0.16002692 -0.031317353 -0.16836278 0.10752159
-0.024451 0.02477674 -0.069107376 0.11299297 -0.059637386 0.049492694 0.041144654 0.019586027
0.11640943 -0.030457629 0.0673512 0.04975299 -0.11372795 0.13696972 -0.18544395 -0.045088492
0.07700582 0.06322023 0.20817105 -0.17318548 0.037638903 -0.043610614 -0.08698753 -0.026077358
0.08164462 -0.19660355 0.05589129 0.10911482 0.101119116 0.1144043 -0.09077003 0.1153
0.087284066 0.086753145 -0.079502836 0.14840835 -0.018740661 0.0057894806 -0.05132418 0.015866864
-0.11118894 -0.025692133 -0.122906804 0.024299802 0.16165651 0.14146191 -0.111356035 -0.10608439
-0.069981635 -0.024373483 0.13322942 0.079696156 0.09398453 -0.066152796 0.106001586 0.14880706
-0.11990524 0.14699942 0.027174907 0.15738642 -0.29760674 -0.12191352 -0.25470707 -0.099043965
-0.1048343 -0.14835262 0.17141704 0.08386029 -0.015302721 0.0373581 0.026956528 -0.30371004
-0.32635057 -0.007670162 0.014416465 -0.2870311 0.03460428 0.2138989 0.30681518 -0.016781284
0.020908702 -0.0567431 0.0654607 0.027168144 -0.14823203 0.22600971 0.14412962 0.032466855
0.11982805 -0.04662555 0.1160706 -0.025273578 -0.090794116 -0.037712652 0.24782921 -0.03681612
0.10524787 0.109814644 -0.09783459 0.28204754 -0.16381502 -0.037284173 -0.09998355 0.21774918
-0.20021814 -0.20608109 0.11901887 0.164371 -0.32576987 0.11977338 0.07062614 -0.009314805
0.11867171 0.19272332 0.28052378 -0.012178087 0.022670656 0.053195424 0.11552428 0.063133396
0.26023996 -0.24116917 0.07798203 -0.32778764 0.2980838 -0.10507117 0.14292385 -0.082650796
0.33569637 -0.21446125 -0.0137943635 -0.24757878 0.2401492 0.22293885 -0.07471031 0.19942342
0.2701117 -0.17332107 -0.18604314 0.073816456 0.04900556 -0.21125469 -0.2887082 -0.27092627
-0.32015014 -0.06534918 0.08636973 0.2190853 0.32396787 -0.14889215 -0.16062416 0.088452004
-0.34180963 -0.070876524 0.19354437 -0.09136803 0.04625168 -0.23465027 -0.17084987 0.064104095
-0.35436743 0.10632123 -0.08333797 -0.07082903 -0.021586599 -0.092848055 0.0037502926 -0.0028656458
-0.19483261 0.25705898 0.015697137 -0.3491858 -0.20371464 -0.35311067 -0.07602018 0.12008852
-0.22567086 -0.33483177 0.21926269 0.26738313 -0.07552463 -0.043948766 -0.09210007 0.31976336
00000000: ab85 ff3d 16ca bbbe fb06 97bd b4a0 a83d
00000010: d7ef 7dbe 68ea f6bd f1b0 b13d 6479 5abd
00000020: 3059 bebe 3004 a73d a907 a2bd e350 6e3e
00000030: f095 b4be ca91 adbe 0c3e f3bd f435 e33d
00000040: d671 9abe 024d 223e bb03 14be 50a5 783d
00000050: 1c15 ef3d fb84 003e a367 01be 8e58 c5ba
00000060: 3a3b 3a3e 8834 b93d cc54 5cbe 7903 56be
00000070: 2d80 a2be bddc 083e 13a9 29ba 5c8c 17be
00000080: 529c 923c d201 843e 8b32 69be 02b8 4a3c
00000090: 1936 96be 8847 7e3e 1202 4dbe 4413 cb3d
000000a0: f4b1 103d e8c1 f6bd e20c 943d 438b 5fbe
000000b0: 1fd9 513e e313 d83d 6995 dabd 4467 7fbc
000000c0: 8c8a 373d cc9e bcbe 1806 f13c 3c2b 123e
000000d0: 15da f03c c39f 3b3c 70f0 c1bc 3825 3abd
000000e0: daa8 843e 6bda 813d be5f 35be c852 b0be
000000f0: c808 febc 217b 86be 942d c33d a702 8dbe
00000100: d043 a6bd ce15 8bbe ad08 b73d 3a8d febc
00000110: 19de 23be a046 00bd 4b67 2cbe 4834 dc3d
00000120: 774d c8bc 97f8 ca3c 2b88 8dbd dc68 e73d
00000130: 5546 74bd dab8 4a3d 4c87 283d e072 a03c
00000140: 1168 ee3d 4782 f9bc 6def 893d cbc9 4b3d
00000150: 33ea e8bd ca41 0c3e 05e5 3dbe b6ae 38bd
00000160: 3ab5 9d3d 9c79 813d cb2a 553e 8957 31be
00000170: 402b 1a3d 0ba1 32bd 8526 b2bd 2fa0 d5bc
00000180: 4b35 a73d 7152 49be 44ee 643d 9777 df3d
00000190: 8a17 cf3d cd4c ea3d a3e5 b9bd 6822 ec3d
000001a0: fdc1 b23d a2ab b13d 62d2 a2bd 5cf8 173e
000001b0: 0486 99bc afb5 bd3b 4e39 52bd 3afb 813c
000001c0: 07b7 e3bd 4f78 d2bc 90b6 fbbd 6110 c73c
000001d0: 4989 253e 64db 103e a20e e4bd c642 d9bd
000001e0: 8852 8fbd e6aa c7bc 4b6d 083e bd37 a33d
000001f0: f67a c03d 1e7b 87bd 5c17 d93d e160 183e
00000200: e190 f5bd 0487 163e e99d de3c e829 213e
00000210: e95f 98be ccad f9bd f768 82be 90d7 cabd
00000220: 5eb3 d6bd c0e9 17be f387 2f3e f2be ab3d
00000230: 44b8 7abc cf04 193d f0d3 dc3c e27f 9bbe
00000240: 6c17 a7be fb55 fbbb 0933 6c3c bef5 92be
00000250: 38bd 0d3d 5008 5b3e e116 9d3e e778 89bc
00000260: ba48 ab3c 746b 68bd 4210 863d ba8f de3c
00000270: 23ca 17be 176f 673e b796 133e f7fb 043d
00000280: 6968 f53d 6ffa 3ebd 6cb6 ed3d 890a cfbc
00000290: 44f2 b9bd 9578 1abd f1c6 7d3e 80cc 16bd
000002a0: 328c d73d 80e6 e03d 805d c8bd 8968 903e
000002b0: 20bf 27be 4ab7 18bd 2dc4 ccbd a4f9 5e3e
000002c0: fc05 4dbe ec06 53be 2ac0 f33d df50 283e
000002d0: 4fcb a6be bf4b f53d 70a4 903d 209d 18bc
000002e0: 270a f33d 4359 453e d0a0 8f3e 9986 47bc
000002f0: d0b7 b93c 72e3 593d fe97 ec3d 154c 813d
00000300: 2c3e 853e 0df5 76be 0bb5 9f3d c8d3 a7be
00000310: 719e 983e 8e2f d7bd a15a 123e d244 a9bd
00000320: 65e0 ab3e bb9b 5bbe c101 62bc 4b85 7dbe
00000330: ace9 753e 154a 643e b801 99bd a735 4c3e
00000340: 154c 8a3e 147b 31be 1882 3ebe 152d 973d
00000350: 0eba 483d 2653 58be 90d1 93be d9b6 8abe
00000360: b8ea a3be cad5 85bd 9de2 b03d e657 603e
00000370: 1edf a53e 2f77 18be a97a 24be 5326 b53d
00000380: ac01 afbe b627 91bd 7f30 463e 291f bbbd
00000390: 6772 3d3d 2948 70be 45f3 2ebe 0249 833d
000003a0: a66f b5be f2be d93d 19ad aabd cf0e 91bd
000003b0: 61d6 b0bc 1f27 bebd 78c7 753b 8fcd 3bbb
000003c0: 3382 47be 3c9d 833e 4897 803c 7bc8 b2be
000003d0: 929a 50be ecca b4be 78b0 9bbd f8f0 f53d
000003e0: 4316 67be 126f abbe 6686 603e 71e6 883e
000003f0: a8ac 9abd 9f03 34bd f69e bcbd 06b8 a33e

fc.4.bias f4 [5]
0.12339673 -0.047573034 -0.048588343 0.070092954 0.01031657
00000000: 6db7 fc3d f1db 42bd 9204 47bd e58c 8f3d
00000010: d506 293c
